E:\Gzn-anaconda\envs\yolov10-lai\python.exe D:/lxd/YOLOv8-multi-task-main/ultralytics/train.py

                   from  n    params  module                                       arguments
  0                  -1  1       464  ultralytics.nn.modules.conv.Conv             [3, 16, 3, 2]
  1                  -1  1      4672  ultralytics.nn.modules.conv.Conv             [16, 32, 3, 2]
  2                  -1  1      3218  ultralytics.nn.modules.module.DICSPv2_Residual_add_v2[32, [1, 3], 'shallow']
  3                  -1  1     18560  ultralytics.nn.modules.conv.Conv             [32, 64, 3, 2]
  4                  -1  1     11412  ultralytics.nn.modules.module.DICSPv2_Residual_add_v2[64, [1, 3], 'shallow']
  5                  -1  1     73984  ultralytics.nn.modules.conv.Conv             [64, 128, 3, 2]
  6                  -1  1     47146  ultralytics.nn.modules.module.DICSPv2_Residual_add_v2[128]
  7                  -1  1    295424  ultralytics.nn.modules.conv.Conv             [128, 256, 3, 2]
  8                  -1  1    180244  ultralytics.nn.modules.module.DICSPv2_Residual_add_v2[256]
  9                  -1  1    164608  ultralytics.nn.modules.block.SPPF            [256, 256, 5]
 10                  -1  1         0  torch.nn.modules.upsampling.Upsample         [None, 2, 'nearest']
 11             [-1, 6]  1         0  ultralytics.nn.modules.conv.Concat           [1]
 12                  -1  1     82784  ultralytics.nn.modules.module_v2.DGCST       [384, 128]
 13                  -1  1         0  torch.nn.modules.upsampling.Upsample         [None, 2, 'nearest']
 14                   2  1     73856  ultralytics.nn.modules.module.SPDConv        [32, 64]
 15         [-1, -2, 4]  1         0  ultralytics.nn.modules.conv.Concat           [1]
 16                  -1  1    180244  ultralytics.nn.modules.module.DICSPv2_Residual_add_v2[256]
 17                  -1  1     25008  ultralytics.nn.modules.module_v2.DGCST       [256, 64]
 18                  -1  1     36992  ultralytics.nn.modules.conv.Conv             [64, 64, 3, 2]
 19            [-1, 12]  1         0  ultralytics.nn.modules.conv.Concat           [1]
 20                  -1  1     58208  ultralytics.nn.modules.module_v2.DGCST       [192, 128]
 21                  -1  1    147712  ultralytics.nn.modules.conv.Conv             [128, 128, 3, 2]
 22             [-1, 9]  1         0  ultralytics.nn.modules.conv.Concat           [1]
 23                  -1  1    231104  ultralytics.nn.modules.module_v2.DGCST       [384, 256]
 24                  23  1         0  torch.nn.modules.upsampling.Upsample         [None, 4, 'nearest']
 25                  20  1         0  torch.nn.modules.upsampling.Upsample         [None, 2, 'nearest']
 26        [-1, -2, 17]  1         0  ultralytics.nn.modules.conv.Concat           [1]
 27                  -1  1     28800  ultralytics.nn.modules.conv.Conv             [448, 64, 1, 1]
 28                  -1  1     12804  ultralytics.nn.modules.module.DICSPv2_Residual_add_v2[64]
 29        [17, 20, 23]  1    751507  ultralytics.nn.modules.head.Detect           [1, [64, 128, 256]]
 30                [28]  1     24636  ultralytics.nn.modules.module.Segment_v3     [1, [64]]
YOLOv8-bdd-v4-one-dropout-individual-n-DICS_Res_add_v11_1_Seg_1_DGCST_3 summary: 392 layers, 2453387 parameters, 2453355 gradients

New https://pypi.org/project/ultralytics/8.3.118 available  Update with 'pip install -U ultralytics'
Ultralytics YOLOv8.0.105  Python-3.9.0 torch-2.5.1+cu121 CUDA:0 (NVIDIA GeForce RTX 4090, 24564MiB)
yolo\engine\trainer: task=multi, mode=train, model=D:\lxd\
…
