E:\Gzn-anaconda\envs\yolov10-lai\python.exe D:/lxd/YOLOv8-multi-task-main/ultralytics/train.py

                   from  n    params  module                                       arguments
  0                  -1  1       464  ultralytics.nn.modules.conv.Conv             [3, 16, 3, 2]
  1                  -1  1      4672  ultralytics.nn.modules.conv.Conv             [16, 32, 3, 2]
  2                  -1  1      7360  ultralytics.nn.modules.block.C2f             [32, 32, 1, True]
  3                  -1  1     18560  ultralytics.nn.modules.conv.Conv             [32, 64, 3, 2]
  4                  -1  2     49664  ultralytics.nn.modules.block.C2f             [64, 64, 2, True]
  5                  -1  1     73984  ultralytics.nn.modules.conv.Conv             [64, 128, 3, 2]
  6                  -1  2    197632  ultralytics.nn.modules.block.C2f             [128, 128, 2, True]
  7                  -1  1    295424  ultralytics.nn.modules.conv.Conv             [128, 256, 3, 2]
  8                  -1  1    460288  ultralytics.nn.modules.block.C2f             [256, 256, 1, True]
  9                  -1  1    164608  ultralytics.nn.modules.block.SPPF            [256, 256, 5]
 10                  -1  1         0  torch.nn.modules.upsampling.Upsample         [None, 2, 'nearest']
 11                  -1  1         0  torch.nn.modules.upsampling.Upsample         [None, 2, 'nearest']
 12             [-1, 4]  1         0  ultralytics.nn.modules.conv.Concat           [1]
 13                  -1  1     45440  ultralytics.nn.modules.block.C2f             [320, 64, 1]
 14                  -1  1         0  torch.nn.modules.upsampling.Upsample         [None, 2, 'nearest']
 15             [-1, 2]  1         0  ultralytics.nn.modules.conv.Concat           [1]
 16                  -1  1      9408  ultralytics.nn.modules.block.C2f             [96, 32, 1]
 17                  -1  1         0  torch.nn.modules.upsampling.Upsample         [None, 2, 'nearest']
 18             [-1, 0]  1         0  ultralytics.nn.modules.conv.Concat           [1]
 19                  -1  1      2400  ultralytics.nn.modules.block.C2f             [48, 16, 1]
 20                  -1  1      4672  ultralytics.nn.modules.conv.Conv             [16, 32, 3, 2]
 21            [-1, 16]  1         0  ultralytics.nn.modules.conv.Concat           [1]
 22                  -1  1      8384  ultralytics.nn.modules.block.C2f             [64, 32, 1]
 23                  -1  1      9280  ultralytics.nn.modules.conv.Conv             [32, 32, 3, 2]
 24            [-1, 13]  1         0  ultralytics.nn.modules.conv.Concat           [1]
 25                  -1  1     31104  ultralytics.nn.modules.block.C2f             [96, 64, 1]
 26                   9  1         0  torch.nn.modules.upsampling.Upsample         [None, 2, 'nearest']
 27             [-1, 6]  1     98561  ultralytics.nn.modules.conv.Concat_dropout   [1]
 28                  -1  1    131840  ultralytics.nn.modules.block.C2f             [256, 128, 1]
 29                  -1  1         0  torch.nn.modules.upsampling.Upsample         [None, 2, 'nearest']
 30             [-1, 4]  1     24705  ultralytics.nn.modules.conv.Concat_dropout   [1]
 31                  -1  1     33152  ultralytics.nn.modules.block.C2f             [128, 64, 1]
 32                  -1  1         0  torch.nn.modules.upsampling.Upsample         [None, 2, 'nearest']
 33             [-1, 2]  1      6209  ultralytics.nn.modules.conv.Concat_dropout   [1]
 34                  -1  1      8384  ultralytics.nn.modules.block.C2f             [64, 32, 1]
 35                  -1  1         0  torch.nn.modules.upsampling.Upsample         [None, 2, 'nearest']
 36             [-1, 0]  1      1569  ultralytics.nn.modules.conv.Concat_dropout   [1]
 37                  -1  1      2144  ultralytics.nn.modules.block.C2f             [32, 16, 1]
 38        [19, 22, 25]  1    211702  ultralytics.nn.modules.head.Detect           [2, [16, 32, 64]]
 39                [37]  1      7940  ultralytics.nn.modules.head.Segment          [1, 32, 64, [16]]
YOLOv8-bdd-v4-one-dropout-individual-n-v3 summary: 329 layers, 1909550 parameters, 1909518 gradients

Ultralytics YOLOv8.0.105  Python-3.9.0 torch-2.5.1+cu121 CUDA:0 (NVIDIA GeForce RTX 4090, 24564MiB)
yolo\engine\trainer: task=multi, mode=train, model=D:/lxd/YOLOv8-multi-task-main/ultralytics/models/v8/yolov8-bdd-v4-one-dropout-individual-n-v3.yaml, data=D:/lxd/YOLOv8-multi-task-
…
