E:\Gzn-anaconda\envs\yolov10-lai\python.exe D:/lxd/YOLOv8-multi-task-main/ultralytics/train.py

                   from  n    params  module                                       arguments
  0                  -1  1       464  ultralytics.nn.modules.conv.Conv             [3, 16, 3, 2]
  1                  -1  1      4672  ultralytics.nn.modules.conv.Conv             [16, 32, 3, 2]
  2                  -1  1      7360  ultralytics.nn.modules.block.C2f             [32, 32, 1, True]
  3                  -1  1     18560  ultralytics.nn.modules.conv.Conv             [32, 64, 3, 2]
  4                  -1  2     49664  ultralytics.nn.modules.block.C2f             [64, 64, 2, True]
  5                  -1  1     73984  ultralytics.nn.modules.conv.Conv             [64, 128, 3, 2]
  6                  -1  2    197632  ultralytics.nn.modules.block.C2f             [128, 128, 2, True]
  7                  -1  1    295424  ultralytics.nn.modules.conv.Conv             [128, 256, 3, 2]
  8                  -1  1    460288  ultralytics.nn.modules.block.C2f             [256, 256, 1, True]
  9                  -1  1    164608  ultralytics.nn.modules.block.SPPF            [256, 256, 5]
 10                  -1  1         0  torch.nn.modules.upsampling.Upsample         [None, 2, 'nearest']
 11             [-1, 6]  1         0  ultralytics.nn.modules.conv.Concat           [1]
 12                  -1  1    403200  ultralytics.nn.modules.module.DICSPOmniKernelv2[384]
 13                  -1  1         0  torch.nn.modules.upsampling.Upsample         [None, 2, 'nearest']
 14                   2  1     73856  ultralytics.nn.modules.module.SPDConv        [32, 64]
 15         [-1, -2, 4]  1         0  ultralytics.nn.modules.conv.Concat           [1]
 16                  -1  1    668672  ultralytics.nn.modules.module.DICSPOmniKernelv2[512]
 17                  -1  1    295040  ultralytics.nn.modules.conv.Conv             [512, 64, 3, 2]
 18            [-1, 12]  1         0  ultralytics.nn.modules.conv.Concat           [1]
 19                  -1  1    527744  ultralytics.nn.modules.module.DICSPOmniKernelv2[448]
 20                  -1  1    516352  ultralytics.nn.modules.conv.Conv             [448, 128, 3, 2]
 21             [-1, 9]  1         0  ultralytics.nn.modules.conv.Concat           [1]
 22                  -1  1    403200  ultralytics.nn.modules.module.DICSPOmniKernelv2[384]
 23                   9  1         0  torch.nn.modules.upsampling.Upsample         [None, 2, 'nearest']
 24             [-1, 6]  1     98561  ultralytics.nn.modules.conv.Concat_dropout   [1]
 25                  -1  1    203264  ultralytics.nn.modules.module.DICSPOmniKernelv2[256]
 26                  -1  1         0  torch.nn.modules.upsampling.Upsample         [None, 2, 'nearest']
 27             [-1, 4]  1     82177  ultralytics.nn.modules.conv.Concat_dropout   [1]
 28                  -1  1    203264  ultralytics.nn.modules.module.DICSPOmniKernelv2[256]
 29                  -1  1         0  torch.nn.modules.upsampling.Upsample         [None, 2, 'nearest']
 30             [-1, 2]  1     73985  ultralytics.nn.modules.conv.Concat_dropout   [1]
 31                  -1  1    203264  ultralytics.nn.modules.module.DICSPOmniKernelv2[256]
 32        [16, 19, 22]  1  15297238  ultralytics.nn.modules.head.Detect           [2, [512, 448, 384]]
 33                [31]  1     78100  ultralytics.nn.modules.head.Segment          [1, 32, 64, [256]]
YOLOv8-bdd-v4-one-dropout-individual-n-v75 summary: 535 layers, 20400573 parameters, 20400541 gradients

New https://pypi.org/project/ultralytics/8.3.108 available  Update with 'pip install -U ultralytics'
Ultralytics YOLOv8.0.105  Python-3.9.0 torch-2.5.1+cu121 CUDA:0 (NVIDIA GeForce RTX 4090, 24564MiB)
yolo\engine\trainer: task=multi, mode=train, model=D:/lxd/YOLOv8-multi-task-
…
