E:\Gzn-anaconda\envs\yolov10-lai\python.exe D:/lxd/YOLOv8-multi-task-main/ultralytics/train.py

                   from  n    params  module                                       arguments
  0                  -1  1       464  ultralytics.nn.modules.conv.Conv             [3, 16, 3, 2]
  1                  -1  1      4672  ultralytics.nn.modules.conv.Conv             [16, 32, 3, 2]
  2                  -1  1      7360  ultralytics.nn.modules.block.C2f             [32, 32, 1, True]
  3                  -1  1     18560  ultralytics.nn.modules.conv.Conv             [32, 64, 3, 2]
  4                  -1  2     49664  ultralytics.nn.modules.block.C2f             [64, 64, 2, True]
  5                  -1  1     73984  ultralytics.nn.modules.conv.Conv             [64, 128, 3, 2]
  6                  -1  2    197632  ultralytics.nn.modules.block.C2f             [128, 128, 2, True]
  7                  -1  1    295424  ultralytics.nn.modules.conv.Conv             [128, 256, 3, 2]
  8                  -1  1    460288  ultralytics.nn.modules.block.C2f             [256, 256, 1, True]
  9                  -1  1    164608  ultralytics.nn.modules.block.SPPF            [256, 256, 5]
 10                  -1  1         0  torch.nn.modules.upsampling.Upsample         [None, 2, 'nearest']
 11             [-1, 6]  1         0  ultralytics.nn.modules.conv.Concat           [1]
 12                  -1  1    148224  ultralytics.nn.modules.block.C2f             [384, 128, 1]
 13                  -1  1         0  torch.nn.modules.upsampling.Upsample         [None, 2, 'nearest']
 14                   2  1     73856  ultralytics.nn.modules.module.SPDConv        [32, 64]
 15         [-1, -2, 4]  1         0  ultralytics.nn.modules.conv.Concat           [1]
 16                  -1  1    224256  ultralytics.nn.modules.module.CSPOmniKernel  [256]
 17                  -1  1     41344  ultralytics.nn.modules.block.C2f             [256, 64, 1]
 18                  -1  1     36992  ultralytics.nn.modules.conv.Conv             [64, 64, 3, 2]
 19            [-1, 12]  1         0  ultralytics.nn.modules.conv.Concat           [1]
 20                  -1  1    123648  ultralytics.nn.modules.block.C2f             [192, 128, 1]
 21                  -1  1    147712  ultralytics.nn.modules.conv.Conv             [128, 128, 3, 2]
 22             [-1, 9]  1         0  ultralytics.nn.modules.conv.Concat           [1]
 23                  -1  1    493056  ultralytics.nn.modules.block.C2f             [384, 256, 1]
 24                   9  1         0  torch.nn.modules.upsampling.Upsample         [None, 2, 'nearest']
 25             [-1, 6]  1     98561  ultralytics.nn.modules.conv.Concat_dropout   [1]
 26                  -1  1    131840  ultralytics.nn.modules.block.C2f             [256, 128, 1]
 27                  -1  1         0  torch.nn.modules.upsampling.Upsample         [None, 2, 'nearest']
 28             [-1, 4]  1     24705  ultralytics.nn.modules.conv.Concat_dropout   [1]
 29                  -1  1     33152  ultralytics.nn.modules.block.C2f             [128, 64, 1]
 30                  -1  1         0  torch.nn.modules.upsampling.Upsample         [None, 2, 'nearest']
 31             [-1, 2]  1      6209  ultralytics.nn.modules.conv.Concat_dropout   [1]
 32                  -1  1      8384  ultralytics.nn.modules.block.C2f             [64, 32, 1]
 33                  -1  1         0  torch.nn.modules.upsampling.Upsample         [None, 2, 'nearest']
 34             [-1, 0]  1      1569  ultralytics.nn.modules.conv.Concat_dropout   [1]
 35                  -1  1      2144  ultralytics.nn.modules.block.C2f             [32, 16, 1]
 36        [17, 20, 23]  1    751702  ultralytics.nn.modules.head.Detect           [2, [64, 128, 256]]
 37                [35]  1      7940  ultralytics.nn.modules.head.Segment          [1, 32, 64, [16]]
YOLOv8-bdd-v4-one-dropout-individual-n-v7 summary: 340 layers, 3627950 parameters, 3627918 gradients

Ultralytics YOLOv8.0.105  Python-3.9.0 torch-2.5.1+cu121 CUDA:0 (NVIDIA GeForce RTX 4090, 24564MiB)
yolo\engine\trainer: task=multi, mode=train, model=D:/lxd/YOLOv8-multi-task-main/ultralytics/models/v8/yolov8-bdd-v4-one-dropout-individual-n-v7.yaml, data=D:/lxd/YOLOv8-multi-task-
…
