D:\Anaconda3\envs\yolov8_multitask\python.exe D:\DL_Project\YOLOv8-multi-task-main\ultralytics\train.py

                   from  n    params  module                                       arguments
  0                  -1  1       928  ultralytics.nn.modules.conv.Conv             [3, 32, 3, 2]
  1                  -1  1     18560  ultralytics.nn.modules.conv.Conv             [32, 64, 3, 2]
  2                  -1  1     29056  ultralytics.nn.modules.block.C2f             [64, 64, 1, True]
  3                  -1  1     73984  ultralytics.nn.modules.conv.Conv             [64, 128, 3, 2]
  4                  -1  2    197632  ultralytics.nn.modules.block.C2f             [128, 128, 2, True]
  5                  -1  1    295424  ultralytics.nn.modules.conv.Conv             [128, 256, 3, 2]
  6                  -1  2    788480  ultralytics.nn.modules.block.C2f             [256, 256, 2, True]
  7                  -1  1   1180672  ultralytics.nn.modules.conv.Conv             [256, 512, 3, 2]
  8                  -1  1   1838080  ultralytics.nn.modules.block.C2f             [512, 512, 1, True]
  9                  -1  1    656896  ultralytics.nn.modules.block.SPPF            [512, 512, 5]
 10                  -1  1         0  torch.nn.modules.upsampling.Upsample         [None, 2, 'nearest']
 11             [-1, 6]  1         0  ultralytics.nn.modules.conv.Concat           [1]
 12                  -1  1    591360  ultralytics.nn.modules.block.C2f             [768, 256, 1]
 13                  -1  1         0  torch.nn.modules.upsampling.Upsample         [None, 2, 'nearest']
 14             [-1, 4]  1         0  ultralytics.nn.modules.conv.Concat           [1]
 15                  -1  1    148224  ultralytics.nn.modules.block.C2f             [384, 128, 1]
 16                  -1  1    147712  ultralytics.nn.modules.conv.Conv             [128, 128, 3, 2]
 17            [-1, 12]  1         0  ultralytics.nn.modules.conv.Concat           [1]
 18                  -1  1    493056  ultralytics.nn.modules.block.C2f             [384, 256, 1]
 19                  -1  1    590336  ultralytics.nn.modules.conv.Conv             [256, 256, 3, 2]
 20             [-1, 9]  1         0  ultralytics.nn.modules.conv.Concat           [1]
 21                  -1  1   1969152  ultralytics.nn.modules.block.C2f             [768, 512, 1]
 22                   9  1         0  torch.nn.modules.upsampling.Upsample         [None, 2, 'nearest']
 23             [-1, 6]  1    393729  ultralytics.nn.modules.conv.Concat_dropout   [1]
 24                  -1  1    525824  ultralytics.nn.modules.block.C2f             [512, 256, 1]
 25                  -1  1         0  torch.nn.modules.upsampling.Upsample         [None, 2, 'nearest']
 26             [-1, 4]  1     98561  ultralytics.nn.modules.conv.Concat_dropout   [1]
 27                  -1  1    131840  ultralytics.nn.modules.block.C2f             [256, 128, 1]
 28                  -1  1         0  torch.nn.modules.upsampling.Upsample         [None, 2, 'nearest']
 29             [-1, 2]  1     24705  ultralytics.nn.modules.conv.Concat_dropout   [1]
 30                  -1  1     33152  ultralytics.nn.modules.block.C2f             [128, 64, 1]
 31                  -1  1         0  torch.nn.modules.upsampling.Upsample         [None, 2, 'nearest']
 32             [-1, 0]  1      6209  ultralytics.nn.modules.conv.Concat_dropout   [1]
 33                  -1  1      8384  ultralytics.nn.modules.block.C2f             [64, 32, 1]
 34        [15, 18, 21]  1   2117209  ultralytics.nn.modules.head.Detect           [3, [128, 256, 512]]
 35                [33]  1     12548  ultralytics.nn.modules.head.Segment          [1, 32, 128, [32]]
YOLOv8-bdd-v4-one-dropout-individual-s summary: 311 layers, 12371713 parameters, 12371681 gradients

Transferred 45/484 items from pretrained weights
Ultralytics YOLOv8.0.105  Python-3.7.16 torch-1.13.1+cu116 CUDA:0 (NVIDIA GeForce RTX 4060 Laptop GPU, 8188MiB)
WARNING  Upgrade to torch>=2.0.0 for deterministic training.
yolo\engine\trainer: task=multi, mode=train, model=D:/DL_Pr
…
